colmap_parameters.npz (npz, 4852 bytes, 3 tensors)

theta f4 [5, 3]
0.058861792 0.8784039 -0.1396896 0.03195385 0.7572063 -0.13693073 0.04726541 0.45615846
-0.10123742 0.057172544 0.28543955 -0.05624919 0.0 0.0 0.0
00000000: 1019 713d 14df 603f ca0a 0fbe 0ae2 023d
00000010: 46d8 413f 9237 0cbe 6099 413d 9a8d e93e
00000020: 9155 cfbd c22d 6a3d 2225 923e 8d65 66bd
00000030: 0000 0000 0000 0000 0000 0000

trans f4 [5, 3]
-1.3286082 0.07319481 0.64307487 -1.1098083 0.12408648 0.81621265 -0.88098216 0.08495879
0.42621005 -0.47104132 0.029514547 0.14091681 0.0 0.0 0.0
00000000: d50f aabf 29e7 953d 8ea0 243f 330e 8ebf
00000010: 0d21 fe3d 50f3 503f 0c88 61bf e0fe ad3d
00000020: 3438 da3e 542c f1be 7ec8 f13c 7f4c 103e
00000030: 0000 0000 0000 0000 0000 0000

key3d f4 [332, 3]
-0.506575 -0.8900875 2.3570766 -0.51083064 -0.85761124 2.3442228 0.36462614 -0.38285667
1.6355922 0.29776654 -0.32110542 1.5568326 0.18157503 -0.29378936 1.4619063 0.2753093
-0.3007594 1.5338651 0.4032052 -0.30282304 1.6440603 -1.9957641 -0.7020891 5.618983
-0.52087396 -0.6348099 2.8915918 0.21913308 -0.24428718 1.4754486 0.45904836 -0.27841383
1.6872609 0.18728915 -0.23013377 1.4467146 0.22034642 -0.23466268 1.4739496 -0.05533075
-0.15624772 1.0609043 0.23132142 -0.17097497 1.4701599 0.18783814 -0.16147399 1.4324466
0.18981124 -0.14636037 1.4291618 0.19729967 -0.14648046 1.436107 0.19367768 -0.14590769
1.4339377 0.1972961 -0.13480906 1.433286 0.1972961 -0.13480906 1.433286 0.32043722
-0.14419594 1.5360513 0.20624277 -0.13382411 1.4411343 0.20531581 -0.13001527 1.4396921
0.37825173 -0.13589726 1.6116226 0.20585892 -0.10126943 1.4337378 0.40831283 -0.102853104
1.6047591 0.19933665 -0.08266519 1.4226629 0.19077049 -0.050935358 1.4087142 0.19065493
-0.04123519 1.4062705 0.23549867 -0.04020375 1.4432952 0.23549867 -0.04020375 1.4432952
0.38295257 -0.02059403 1.5926535 0.1997687 -0.006539364 1.4064232 0.1997687 -0.006539364
1.4064232 0.18920727 0.0013361402 1.3979743 0.18920727 0.0013361402 1.3979743 0.38863575
0.005515937 1.5839828 0.28528336 0.010641491 1.4746095 0.29578942 0.012150362 1.4798802
0.2872905 0.015801009 1.4721589 0.2872905 0.015801009 1.4721589 0.21718511 0.02464415
1.413333 0.40550718 0.029245006 1.576425 0.19793439 0.026634349 1.3989351 0.29610324
0.031322073 1.4760184 0.27883726 0.03838924 1.4600224 0.27883726 0.03838924 1.4600224
0.38427925 0.044546634 1.5752782 0.29817697 0.050915185 1.4750961 0.29817697 0.050915185
1.4750961 0.21743941 0.05356379 1.4068521 0.31209898 0.057918146 1.4866358 0.18964164
0.059069343 1.385074 0.21589875 0.0678525 1.4041227 0.2680839 0.07557236 1.4460325
0.25938922 0.07921125 1.4379972 0.24419114 0.08157649 1.4218044 0.20735979 0.09045082
1.392855 0.1984561 0.09369975 1.3848997 0.4067884 0.10753253 1.558531 0.26173788
0.10322466 1.4312608 0.23517808 0.10400294 1.4102961 0.20093188 0.10833944 1.381194
0.27722612 0.120095305 1.4435129 0.23918748 0.119027965 1.4117382 0.3052639 0.12411114
1.4622846 0.21872555 0.12048597 1.3921889 0.30263856 0.12883204 1.4622898 0.23053831
0.13173401 1.3988417 0.23578283 0.13264118 1.4033831 0.24234284 0.13388152 1.4112692
0.24798985 0.13477027 1.416045 0.252992 0.135129 1.4170206 0.252992 0.135129
1.4170206 0.39946595 0.1508092 1.5507134 0.40892702 0.16000795 1.5468612 0.24472737
0.14830184 1.4071504 0.25174943 0.14959784 1.4152448 0.20112883 0.14624152 1.372474
0.26844457 0.15213126 1.4280746 0.4127132 0.1699283 1.5467297 0.244851 0.1577577
1.4051152 0.21913542 0.15841322 1.3840287 0.24280556 0.16249026 1.4049636 0.40907732
00000000: e6ae 01bf c6dc 63bf 58da 1640 ccc5 02bf
00000010: 698c 5bbf bf07 1640 47b0 ba3e ca05 c4be
00000020: 165b d13f db74 983e ee67 a4be 4a46 c73f
00000030: ceee 393e 8f6b 96be bf1f bb3f 57f5 8c3e
00000040: 23fd 99be b155 c43f e970 ce3e 9f0b 9bbe
00000050: 9170 d23f 3375 ffbf 1cbc 33bf b5ce b340
00000060: ff57 05bf e782 22bf d70f 3940 6c64 603e
00000070: 6b26 7abe 80db bc3f 6308 eb3e 428c 8ebe
00000080: 2af8 d73f bac8 3f3e 30a8 6bbe f22d b93f
00000090: 7ea2 613e 6a4b 70be 61aa bc3f 7fa2 62bd
000000a0: 67ff 1fbe b6cb 873f 86df 6c3e 1014 2fbe
000000b0: 332e bc3f a458 403e 7059 25be 695a b73f
000000c0: e15d 423e 7edf 15be c6ee b63f ed08 4a3e
000000d0: f9fe 15be 5bd2 b73f 7153 463e d368 15be
000000e0: 458b b73f fd07 4a3e 630b 0abe ea75 b73f
000000f0: fd07 4a3e 630b 0abe ea75 b73f 5910 a43e
00000100: 1aa8 13be 549d c43f 4e31 533e 3009 09be
00000110: 1777 b83f 4f3e 523e b922 05be d547 b83f
00000120: 36aa c13e a728 0bbe a649 ce3f aecc 523e
00000130: 5966 cfbd b884 b73f 610e d13e a6a4 d2bd
00000140: bf68 cd3f e81e 4c3e 5e4c a9bd d119 b63f
00000150: 5759 433e 98a1 50bd bf50 b43f 0c3b 433e
00000160: 3be6 28bd ac00 b43f 9026 713e b0ac 24bd
00000170: e6bd b83f 9026 713e b0ac 24bd e6bd b83f
00000180: 5c12 c43e d0b4 a8bc 12dc cb3f 2b90 4c3e
00000190: 2948 d6bb ad05 b43f 2b90 4c3e 2948 d6bb
000001a0: ad05 b43f 8dbf 413e 6d21 af3a d2f0 b23f
000001b0: 8dbf 413e 6d21 af3a d2f0 b23f 44fb c63e
000001c0: 09bf b43b f3bf ca3f a910 923e a659 2e3c
000001d0: 01c0 bc3f b671 973e 5012 473c b76c bd3f
000001e0: be17 933e 1e71 813c b46f bc3f be17 933e
000001f0: 1e71 813c b46f bc3f c665 5e3e 87e2 c93c
00000200: 19e8 b43f a39e cf3e 3993 ef3c 4bc8 c93f
00000210: 50af 4a3e 4730 da3c 4e10 b33f d89a 973e
00000220: 934b 003d 2cee bc3f c2c3 8e3e 093e 1d3d
00000230: 04e2 ba3f c2c3 8e3e 093e 1d3d 04e2 ba3f
00000240: 40c0 c43e 8876 363d b7a2 c93f a7aa 983e
00000250: 718c 503d f3cf bc3f a7aa 983e 718c 503d
00000260: f3cf bc3f 70a8 5e3e b465 5b3d bb13 b43f
00000270: 70cb 9f3e 943b 6d3d 154a be3f 6b31 423e
00000280: b2f2 713d 1b4a b13f 9014 5d3e 40f6 8a3d
00000290: 4bba b33f 4b42 893e aec5 9a3d 9817 b93f
000002a0: aace 843e 8239 a23d 4b10 b83f 3e0d 7a3e
000002b0: 9311 a73d b0fd b53f 2056 543e 483e b93d
000002c0: 1349 b23f 1338 4b3e a8e5 bf3d 6544 b13f
000002d0: 9246 d03e 043a dc3d f27d c73f 8202 863e
000002e0: 7367 d33d 8e33 b73f 86d2 703e 7eff d43d
000002f0: 9584 b43f 16c1 4d3e 11e1 dd3d f7ca b03f
00000300: 95f0 8d3e 87f4 f53d 08c5 b83f 90ed 743e
00000310: efc4 f33d d6b3 b43f 8d4b 9c3e fb2d fe3d
00000320: 242c bb3f 97f9 5f3e 59c1 f63d 3f33 b23f
00000330: 71f3 9a3e 8cec 033e 502c bb3f 3c12 6c3e
00000340: 48e5 063e 3f0d b33f 0e71 713e 17d3 073e
00000350: 0fa2 b33f b928 783e 3d18 093e 78a4 b43f
00000360: 0df1 7d3e 3801 0a3e f640 b53f 2b88 813e
00000370: 425f 0a3e ee60 b53f 2b88 813e 425f 0a3e
00000380: ee60 b53f cd86 cc3e ba6d 1a3e c77d c63f
00000390: e25e d13e 20d9 233e 8cff c53f d099 7a3e
000003a0: 70dc 173e 811d b43f 4de5 803e 2d30 193e
000003b0: be26 b53f b7f4 4d3e 56c0 153e 3aad af3f
000003c0: 9171 893e 4cc8 1b3e 26cb b63f 254f d33e
000003d0: af01 2e3e 3dfb c53f 38ba 7a3e 3c8b 213e
000003e0: d1da b33f 0965 603e 1337 223e da27 b13f
000003f0: 05a2 783e d963 263e d9d5 b33f 9572 d13e
