colmap_parameters_from_loftr.npz (npz, 4768 bytes, 3 tensors)

theta f4 [5, 3]
000000 13 c2 a4 bd a5 a3 70 bf b7 5b 0c 3e 48 37 d3 bc
       -0.08044829 -0.939997 0.13706861 -0.025783196
000010 69 8e 2c bf ac fe 94 3d d0 6d e2 bc a3 f8 f6 be
       -0.674048 0.07275137 -0.027640253 -0.4823657
000020 8f 93 26 3d 30 e6 c3 bc f4 d8 14 be 02 1f 59 3c
       0.040668067 -0.023913473 -0.14535886 0.013252022
000030 00 00 00 00 00 00 00 00 00 00 00 00
       0.0 0.0 0.0

trans f4 [5, 3]
000000 80 94 c7 3f 38 25 d4 3d 97 5e 32 3f 32 55 9c 3f
       1.5592194 0.103586614 0.6967558 1.22135
000010 ff 6f 09 3d a6 85 d8 3e ef 09 45 3f 74 89 5b 3d
       0.033554073 0.42289466 0.7696828 0.053597882
000020 ea 4e e5 3e 14 59 bd 3e 31 ed 8a 3d 13 8e c5 3e
       0.4478677 0.36982024 0.06783522 0.38584957
000030 00 00 00 00 00 00 00 00 00 00 00 00
       0.0 0.0 0.0

key3d f4 [325, 3]
000000 f4 d6 42 be 74 32 84 bf 9b d9 2c 40 ef 03 36 be
       -0.1902731 -1.0327897 2.7007816 -0.17774938
000010 31 1e 82 bf 63 f4 2b 40 95 00 5c be b0 b8 7b bf
       -1.0165464 2.6867912 -0.21484597 -0.98328686
000020 10 00 2d 40 c9 f2 34 be b8 98 7f bf 96 ce 2b 40
       2.7031288 -0.1767074 -0.99842405 2.684484
000030 e3 82 24 bc 01 8c 87 bf 21 2c 29 40 05 4b 5c be
       -0.010040971 -1.0589601 2.6433184 -0.21512993
000040 3e 87 71 bf 2e 18 2c 40 36 b8 4a be 88 0f 74 bf
       -0.9434699 2.6889758 -0.19796833 -0.953362
000050 ef 70 2c 40 23 81 1f bc 83 16 85 bf 7e f2 28 40
       2.694393 -0.009735378 -1.0397495 2.6398005
000060 f1 5b 31 be 1f 60 71 bf 5b 1c 2b 40 d9 0a 2e be
       -0.17320229 -0.94287294 2.6736057 -0.16996326
000070 85 80 6d bf 04 45 2b 40 af c8 59 bd 05 c4 7a bf
       -0.9277423 2.6760874 -0.053169902 -0.9795535
000080 89 5e 29 40 4a 47 b7 3d 63 b6 85 bf 74 09 27 40
       2.646395 0.08949144 -1.0446285 2.609952
000090 9c 80 71 be e8 8c 61 bf 12 4f 2c 40 63 74 2c be
       -0.23584217 -0.8810563 2.692326 -0.16841273
0000a0 f5 e4 68 bf 56 1e 2b 40 55 64 35 3e e7 1c 88 bf
       -0.9097436 2.6737266 0.17714055 -1.063382
0000b0 12 a0 25 40 72 b5 5b 3e 07 97 8a bf de 4f 25 40
       2.587895 0.21455935 -1.082734 2.5829997
0000c0 a9 06 10 be d5 c0 66 bf 23 17 2a 40 3c 10 5d 3e
       -0.1406504 -0.9013799 2.6576622 0.21588224
0000d0 ab f7 87 bf 24 28 25 40 ef 8e 1b be b5 2f 61 bf
       -1.0622457 2.580575 -0.15191244 -0.8796342
0000e0 3a 74 2a 40 7e 4c 44 3c 17 33 73 bf d3 c7 27 40
       2.663344 0.011981128 -0.9499983 2.6215713
0000f0 bb 0a 71 3e d0 60 86 bf e8 ba 24 40 49 7d 04 3f
       0.2353925 -1.0498295 2.5739079 0.5175367
000100 f7 41 96 bf 1e d2 20 40 e8 df 31 3d 5c 63 71 bf
       -1.1738881 2.5128245 0.043426424 -0.94292235
000110 a0 e3 26 40 ae fb 04 3e 73 cb 7b bf 8f 0f 26 40
       2.6076431 0.12986633 -0.98357314 2.5946996
000120 5e 84 4b 3e 26 b3 81 bf 52 f4 24 40 2b 69 b2 3e
       0.19874713 -1.0132797 2.5774121 0.34845862
000130 2c 0f 8a bf 51 d2 22 40 a7 76 d4 3e 82 c6 8d bf
       -1.078588 2.5440867 0.41496775 -1.1076205
000140 f1 5e 22 40 91 67 04 3f 52 51 93 bf 6a 98 20 40
       2.5370448 0.5172053 -1.1509192 2.5093026
000150 9b b7 11 3f 88 45 96 bf 0d af 20 40 64 eb 9f bd
       0.56920785 -1.1739969 2.5106843 -0.07808569
000160 30 6f 5f bf a9 da 28 40 4a 6e 05 bd d1 91 64 bf
       -0.87279034 2.638346 -0.032575883 -0.89285
000170 c6 23 28 40 00 eb 37 3d 46 e1 6c bf b7 d3 26 40
       2.6271834 0.044901848 -0.9253124 2.606672
000180 7b 84 05 3e 5d 95 76 bf 6b d5 25 40 0a 96 b3 3e
       0.13038819 -0.9632166 2.591151 0.35075408
000190 a5 54 87 bf b1 bc 22 40 27 8a fd 3e 74 36 8f bf
       -1.0572706 2.5427668 0.49519464 -1.1188493
0001a0 84 ba 20 40 dd 57 04 3f a1 68 90 bf f0 65 20 40
       2.511384 0.5169657 -1.128193 2.5062218
0001b0 e0 02 11 3f f3 39 93 bf f0 27 20 40 f3 73 42 be
       0.5664501 -1.150206 2.5024376 -0.18989544
0001c0 27 47 4f bf 46 99 2a 40 17 31 9c bd 23 bd 5a bf
       -0.80967945 2.665605 -0.07626551 -0.8544485
0001d0 1f c4 28 40 04 f2 f7 3c b4 53 66 bf d9 f1 26 40
       2.6369703 0.03026677 -0.8997147 2.6085112
0001e0 0e 02 04 3e 46 b5 70 bf a7 6d 25 40 0e da 74 3e
       0.12891409 -0.940266 2.5848176 0.23911306
0001f0 00 2e 7d bf 65 48 24 40 cd f0 b3 3e 9c 8f 84 bf
       -0.98898315 2.5669186 0.35144654 -1.0356326
000200 39 7d 22 40 a1 a3 be 3e ac ba 85 bf 21 5c 22 40
       2.538893 0.37234214 -1.0447593 2.536873
000210 38 b9 c8 3e b0 d1 86 bf 6c 02 22 40 cc ec e6 3e
       0.3920381 -1.0532742 2.5313978 0.45102537
000220 96 ea 89 bf 11 d4 20 40 bc 21 fe 3e 8b 6c 8c bf
       -1.0774715 2.5129435 0.49635112 -1.0970625
000230 04 85 20 40 d6 b6 04 3f 8f c1 8d bf 6d 56 20 40
       2.5081186 0.51841486 -1.1074694 2.505275
000240 be c6 1b 3f 12 76 92 bf bb 0b 1f 40 61 cf 40 be
       0.6085013 -1.1442282 2.485091 -0.18829109
000250 ae a1 4a bf 16 73 2a 40 a8 3a 1b 3e 1c 93 6e bf
       -0.79152954 2.6632743 0.15159094 -0.9319322
000260 93 85 25 40 4e 4d 72 3e c8 85 77 bf bc d6 23 40
       2.5862777 0.23662302 -0.9668851 2.5599813
000270 c3 e2 b3 3e 9f c2 81 bf d6 3d 22 40 c4 63 c9 3e
       0.35133943 -1.0137519 2.5350242 0.39333928
000280 43 19 84 bf 8c ed 21 40 26 cc d3 3e d4 16 85 bf
       -1.0320209 2.5301237 0.4136669 -1.0397592
000290 ad 9c 21 40 f5 c1 de 3e 73 7a 86 bf 41 6c 21 40
       2.5251877 0.43507352 -1.0506119 2.5222323
0002a0 d1 b5 fd 3e fe 7e 89 bf 43 3d 20 40 f0 a9 04 3f
       0.49552777 -1.074188 2.503739 0.51821804
0002b0 2b 9f 8a bf b4 ff 1f 40 ca 30 69 bd 25 d2 53 bf
       -1.0829824 2.4999819 -0.056931295 -0.8274253
0002c0 a8 80 28 40 96 3a 1a 3e 31 27 69 bf 29 05 25 40
       2.6328526 0.15061411 -0.91075426 2.57844
0002d0 3a 5f 2b 3e fe 3f 6b bf c1 d5 24 40 7f ba 72 3e
       0.16735545 -0.9189452 2.5755465 0.23703955
0002e0 be c9 71 bf aa 96 23 40 77 08 83 3e c3 11 74 bf
       -0.9444846 2.5560708 0.25592396 -0.953396
0002f0 c2 6d 23 40 bb ee c9 3e 96 68 81 bf 4e b9 21 40
       2.553574 0.3943995 -1.0110042 2.526935
000300 c5 f7 de 3e 15 8b 83 bf 94 21 21 40 3e 14 fd 3e
       0.43548408 -1.027682 2.5176744 0.49429506
000310 81 79 86 bf 78 f6 1f 40 d6 64 6c bd 55 c5 4e bf
       -1.050583 2.4994183 -0.057713352 -0.80769855
000320 9a 17 28 40 44 7b 4a bc 92 1e 53 bf 63 47 27 40
       2.6264405 -0.01235849 -0.8246852 2.613732
000330 95 9e 19 3e 31 18 64 bf 89 c1 24 40 5e bc 2b 3e
       0.150019 -0.89099413 2.5743124 0.16771075
000340 f6 24 66 bf 9a 9b 24 40 f0 da c9 3e 8f ec 7c bf
       -0.8990015 2.5719972 0.3942485 -0.9879846
000350 fa 73 21 40 be f9 d3 3e 84 05 7f bf c5 1f 21 40
       2.5227036 0.41401476 -0.9961779 2.517564
000360 56 0f de 3e 81 91 80 bf 88 af 20 40 e3 8e f3 3e
       0.43371075 -1.0044404 2.5107136 0.4756995
000370 79 b9 82 bf bd 33 20 40 88 77 05 be 69 ac 42 bf
       -1.0212852 2.5031579 -0.13033879 -0.7604433
000380 b9 e4 28 40 e6 77 1b 3e 4b 1d 5f bf 42 b3 24 40
       2.6389601 0.15182456 -0.8715407 2.573441
000390 18 ad d4 3e c3 cb 79 bf ba 0a 21 40 f5 bb de 3e
       0.4153831 -0.9757654 2.5162797 0.43502775
0003a0 ab ed 7b bf ad a1 20 40 28 66 2e be 3c fb 39 bf
       -0.9840953 2.509868 -0.17031157 -0.7264898
0003b0 bb 6b 29 40 cf cf ad 3d 8d 32 53 bf c0 7c 25 40
       2.6472003 0.08486902 -0.8249901 2.5857391
0003c0 b7 e3 75 3e 58 7f 62 bf ba 20 23 40 fd 96 a0 3e
       0.24012648 -0.8847556 2.5488725 0.31365195
0003d0 94 af 69 bf 55 e9 21 40 39 c1 c9 3e 85 5e 72 bf
       -0.91283536 2.5298665 0.3940523 -0.94675475
0003e0 eb 0a 21 40 b3 11 d5 3e 15 7b 74 bf 58 e3 20 40
       2.5162914 0.41615066 -0.9550031 2.513876
0003f0 a2 42 5c bd 21 3d 41 bf 69 ab 27 40 38 9e 28 bc
       -0.053774484 -0.754839 2.619837 -0.010291629
